…
275,"user":{"displayName":"방지훈","userId":"12258825655434514560"}},"outputId":"e418e783-1fbe-4e44-cce8-6847d84bdc17"},"execution_count":null,"outputs":[{"output_type":"stream","name":"stdout","text":["Model: \"model\"\n","_________________________________________________________________\n"," Layer (type)                Output Shape              Param #   \n","=================================================================\n"," input_1 (InputLayer)        [(None, 28, 28, 1)]       0         \n","                                                                 \n"," conv2d (Conv2D)             (None, 26, 26, 32)        320       \n","                                                                 \n"," conv2d_1 (Conv2D)           (None, 24, 24, 64)        18496     \n","                                                                 \n"," max_pooling2d (MaxPooling2D  (None, 12, 12, 64)       0         \n"," )                                                               \n","                                                                 \n"," dropout (Dropout)           (None, 12, 12, 64)        0         \n","                                                                 \n"," flatten (Flatten)           (None, 9216)              0         \n","                                                                 \n"," dense (Dense)               (None, 128)               1179776   \n","                                                                 \n"," dropout_1 (Dropout)         (None, 128)               0         \n","                                                                 \n"," dense_1 (Dense)             (None, 10)                1290      \n","                                                                 \n","=================================================================\n","Total params: 1,199,882\n","Trainable params: 1,199,882\n","Non-trainable params: 0\n","_________________________________________________________________\n"]}]},{"cell_type":"code","source":["hist = cnn.fit(x_train, y_train, batch_size=128, \n","   
…
